…
2017-10-30 11:16:29.454076: I tensorflow/core/common_runtime/gpu/gpu_device.cc:1045] Creating TensorFlow device (/gpu:0) -> (device: 0, name: Tesla K80, pci bus id: 0000:00:1e.0)
2017-10-30 11:16:42.927911: I tensorflow/core/common_runtime/gpu/gpu_device.cc:1045] Creating TensorFlow device (/gpu:0) -> (device: 0, name: Tesla K80, pci bus id: 0000:00:1e.0)
Found 9901446 images belonging to 5270 classes.
Found 2469847 images belonging to 5270 classes.
_________________________________________________________________
Layer (type)                 Output Shape              Param #   
=================================================================
input_1 (InputLayer)         (None, 180, 180, 3)       0         
_________________________________________________________________
block1_conv1 (Conv2D)        (None, 180, 180, 64)      1792      
_________________________________________________________________
block1_conv2 (Conv2D)        (None, 180, 180, 64)      36928     
_________________________________________________________________
block1_pool (MaxPooling2D)   (None, 90, 90, 64)        0         
_________________________________________________________________
block2_conv1 (Conv2D)        (None, 90, 90, 128)       73856     
_________________________________________________________________
block2_conv2 (Conv2D)        (None, 90, 90, 128)       147584    
_________________________________________________________________
block2_pool (MaxPooling2D)   (None, 45, 45, 128)       0         
_________________________________________________________________
block3_conv1 (Conv2D)        (None, 45, 45, 256)       295168    
_________________________________________________________________
block3_conv2 (Conv2D)        (None, 45, 45, 256)       590080    
_________________________________________________________________
block3_conv3 (Conv2D)        (None, 45, 45, 256)       590080    
_________________________________________________________________
block3_pool (MaxPooling2D)   (None, 22, 22, 256)       0         
_________________________________________________________________
block4_conv1 (Conv2D)        (None, 22, 22, 512)       1180160   
_________________________________________________________________
block4_conv2 (Conv2D)        (None, 22, 22, 512)       2359808   
_________________________________________________________________
block4_conv3 (Conv2D)        (None, 22, 22, 512)       2359808   
_________________________________________________________________
block4_pool (MaxPooling2D)   (None, 11, 11, 512)       0         
_________________________________________________________________
block5_conv1 (Conv2D)        (None, 11, 11, 512)       2359808   
_________________________________________________________________
block5_conv2 (Conv2D)        (None, 11, 11, 512)       2359808   
_________________________________________________________________
block5_conv3 (Conv2D)        (None, 11, 11, 512)       2359808   
_________________________________________________________________
block5_pool (MaxPooling2D)   (None, 5, 5, 512)         0         
_________________________________________________________________
sequential_1 (Sequential)    (None, 5270)              4631446   
=================================================================
Total params: 19,346,134
Trainable params: 11,710,870
Non-trainable params: 7,635,264
_________________________________________________________________
None
Epoch 1/4000
Finished epoch: 0
{'val_loss': 4.9628530025482176, 'acc': 0.28125, 'loss': 4.645071268081665, 'val_acc': 0.28984375000000001}
 - 41s - loss: 4.6451 - acc: 0.2812 - val_loss: 4.9629 - val_acc: 0.2898
…
